wasm/spot/assets/policy.onnx (onnx, 329244 bytes, 6 tensors)

network.0.bias f4 [256]
00000000: 872f 953e 6f94 e83e 32fc 9dbe be00 803e
00000010: e70e 863d 4a31 7f3e 0743 1a3d 9f1a 373e
00000020: 8d15 bebe 9b4e 08bc 4468 72be 8678 553e
00000030: f5d6 0d3f 1ae7 13bd 7bbe f7be 088a 263d
00000040: d148 6b3f 3d18 a03d 7028 6f3e add3 8c3d
00000050: d2a6 acbe 9686 2dbe 3f90 91bd 0d4c 203e
00000060: c523 683d 06de 4b3f 8499 213e b5cb 863d
00000070: 7e02 be3c d298 e73e 8067 743e 250d 003e
00000080: 722d c0be 6f27 75be 951c 583e 8665 eabe
00000090: 2ab7 7b3e c2d3 ba3e 749b c2bd 5a14 b4be
000000a0: 786e 9c3e a8ef a9bc 6401 5b3e c8be 07bf
000000b0: 230d b7be 6def f33d b16e 1b3f d0d2 88be
000000c0: 676b de3d af01 bebe b906 913e af4d c33e
000000d0: 7015 3bbe 4a2d 14bf d970 233f 6721 bcbe
000000e0: 0e63 a53d 1d01 b33d 7deb 1e3d f79a cbbd
000000f0: 8a05 02be dc28 3f3e d49b 71be dca0 0cbe
00000100: 230d c2be 22c3 b83e e9b9 efbe da03 f3bb
00000110: 1ee4 393e 3220 a93e 4e13 d1be 879d 2c3d
00000120: fc68 0ebe d2be 6ebe 2253 c1bd 8ae8 9f3d
00000130: 7a08 7f3e c018 a03e bb31 5bbe dabf 10be
00000140: 05c4 39bd 608c ca3e 0830 f4be 6df6 7abe
00000150: c0e2 eebd 06ab 0dbe 3e1a 263f 23e5 f63c
00000160: e057 9d3e 99f4 96bd 0bd4 cfbe 3a17 003e
00000170: 5d8a f0be 811a 833e b0eb 4e3e d310 4c3e
00000180: 7295 0e3f 4600 e33d 5332 8a3c e198 8dbd
00000190: f583 a13e 59d8 e1be 971a d2be 08d6 be3e
000001a0: 4442 ac3d a6db 4a3e c31b 02bd d607 ebbc
000001b0: f98e 293c b523 c93e 73ce 113d 0fee c63e
000001c0: b63d 7bbe 2df3 0ebd 8110 aebd a08e c33e
000001d0: 95f1 80bd 173d 0ebf ed8e f23d ca67 c3bc
000001e0: 93ef 09bf 8a1d 5f3e df7b fbbe b358 8fbd
000001f0: 6fc4 8ebe d1bd 093e 4f27 463d 6b77 ad3e
00000200: 685f fdbd 9e63 db3c 29a5 0dbf 0ad4 a3be
00000210: 3971 81be abb4 b33e 062a 363f 70c3 3e3e
00000220: f682 cfbe 03ea 693e 01db 263d bf28 7b3e
00000230: aa0c 8abd a72b 6f3e a152 883e c886 48be
00000240: 300d be3e a553 90bd 236a b23e 3afa 1fbe
00000250: 3612 9fbe c031 35be 56ab 14bd 8b89 c9be
00000260: 0d8d c13e 3b39 c03e c1b9 25be 2b03 933e
00000270: b906 103d eb94 d83e 4370 8b3e b5ca 15bd
00000280: 0f5f 2ebd 9167 0fbe 41d3 89be ad81 37be
00000290: 6a3c 2d3c 95d2 4ebd f1ed e43d 4d89 92be
000002a0: 8db0 aa3d fa1a adbd 6ec3 48be 799c 553d
000002b0: baf3 f03e 4744 073f 26e6 85be 2656 1fbb
000002c0: a883 863e 18da 93bd 036d 3d3d ad44 b23e
000002d0: 6e85 8cbd 4640 fb3e 3680 853e 46e4 15bf
000002e0: f82b 6ebe 3582 573e 7e64 07bf 674c 69bc
000002f0: 2e78 493e 4930 f43d 6ed7 d83e 295a db3e
00000300: a5ae 94bd 5abf 2abb 13ad 12be f434 783e
00000310: e53b b83e bd08 12bd a7b1 30be 941a 90be
00000320: c230 c53e 7185 913e 0803 723f dcad 77be
00000330: 0131 c13c 6e47 f6bd 8c53 673e 3e77 b1bd
00000340: 7853 63bd 857f e53e 4e39 c83d ba43 01be
00000350: 87d9 223d f8d1 39bf 7011 3dbf 15db d33d
00000360: 0167 bb3a 44f0 a73d 2481 f9bc a8a9 8dbe
00000370: 8278 17be 366a 9b3d 045b 1f3e 32e9 2fbf
00000380: fdf4 84bd e1f2 35be 51c4 f0bd ffb3 1ebd
00000390: 55a7 c43e 9ab0 ed3c 5552 55bf d259 a4bd
000003a0: dbdd 3e3e 9910 80be ccd7 a1be 8510 0b3e
000003b0: 8b07 493e 01cb c83d 0da1 ab3e f6f6 28bd
000003c0: 8f82 fbbc 99aa f13b 0521 12bf 65f7 aabe
000003d0: 85eb e93e d1d2 4a3e 21c2 993d 2c28 123e
000003e0: 6bf9 ad3e c1d1 513e f5b1 143f 0c23 913e
000003f0: 200b 46be 3044 3bbf 8bd8 52be 0487 a53e
0.29137823 0.45425746 -0.30856472 0.25000566 0.06545811 0.24921146 0.03766158 0.17881249
-0.37125817 -0.008319522 -0.23672587 0.20846757 0.55406123 -0.036109067 -0.48387513 0.04065898
0.91907984 0.07817123 0.2335527 0.068763115 -0.33721024 -0.16945872 -0.07107591 0.15654011
0.056674737 0.79635656 0.15781218 0.06581823 0.023194548 0.4523378 0.23867607 0.12505014
-0.37534672 -0.23940824 0.21104653 -0.4578058 0.2458159 0.36489683 -0.095023066 -0.35171777
0.3055303 -0.02074416 0.21387249 -0.53025484 -0.3575221 0.11910901 0.60715777 -0.26723337
0.10860329 -0.3711066 0.2832544 0.38145205 -0.18269897 -0.57881606 0.63844067 -0.36744234
0.08075534 0.08740447 0.038798798 -0.099416666 -0.12697425 0.1866793 -0.235946 -0.13733238
-0.37900648 0.36086375 -0.46821526 -0.0074162306 0.18153426 0.33032376 -0.4083504 0.042142417
-0.13907236 -0.2331498 -0.094396845 0.07808025 0.24905577 0.31268883 -0.2140569 -0.14135686
-0.045352954 0.39560223 -0.47692895 -0.24508066 -0.11664343 -0.13834772 0.6488379 0.030138558
0.30731106 -0.07370872 -0.40591463 0.1250886 -0.46980563 0.25606158 0.20207095 0.19928293
0.55696785 0.110840365 0.0168697 -0.06913925 0.31545988 -0.44110373 -0.4103591 0.37272668
0.08411077 0.19810352 -0.031764757 -0.02869026 0.010349029 0.39285055 0.035597276 0.388535
-0.2453526 -0.03489988 -0.084992416 0.38194752 -0.06296078 -0.55561966 0.11843667 -0.023853201
-0.53881186 0.21788612 -0.49117944 -0.0699934 -0.27884242 0.13451315 0.04837733 0.3388017
-0.12371713 0.0267809 -0.5533014 -0.3199771 -0.25281695 0.35098776 0.7115787 0.18629241
-0.40529603 0.22843175 0.040736202 0.24527262 -0.06740697 0.23356496 0.2662554 -0.19582665
0.37119436 -0.07047204 0.348466 -0.15622798 -0.3106858 -0.1769476 -0.03629621 -0.3936275
0.37802926 0.37543663 -0.1618414 0.28713354 0.03516266 0.42301115 0.27234086 -0.03657027
-0.042571124 -0.14004351 -0.26918986 -0.17920561 0.010573486 -0.050493795 0.11178196 -0.28620377
0.08334456 -0.08452411 -0.196058 0.052151177 0.4706095 0.5283856 -0.26152152 -0.0024312823
0.2627232 -0.072193325 0.04624654 0.3481802 -0.06861387 0.49072474 0.2607438 -0.5855144
-0.2325896 0.21045764 -0.52887714 -0.014239407 0.19674751 0.11923272 0.4235186 0.42842224
-0.07259873 -0.0026053996 -0.14323835 0.2423895 0.35983196 -0.035652865 -0.17255269 -0.28145278
0.38513762 0.2842212 0.94535875 -0.24187416 0.023582937 -0.12025343 0.22590464 -0.08665322
-0.055499524 0.44823852 0.09776555 -0.12623492 0.03975823 -0.7258601 -0.7385473 0.10344521
0.0014297665 0.08200124 -0.030457087 -0.276685 -0.14792064 0.075886175 0.15562063 -0.687152
-0.0649204 -0.17768432 -0.117561944 -0.038745876 0.38408914 0.029014874 -0.83328754 -0.08024944
0.18639319 -0.25012663 -0.31609952 0.1358052 0.19631784 0.09804345 0.3352131 -0.041251145
-0.030701904 0.007375073 -0.57081634 -0.33391872 0.456875 0.19806983 0.0750773 0.14273137
0.33979353 0.20490171 0.5808404 0.2834705 -0.19340181 -0.7315092 -0.20590417 0.3232957

network.2.bias f4 [256]
00000000: c481 d5be be1b 323d a937 e93e 32b4 debd
00000010: b207 d03e e1c5 edbc ad70 e73d 667b ad3d
00000020: 29f1 40bd 07c1 1dbe 20d6 b2be 0f7b 2c3d
00000030: e48d 2abd 8266 25be 8aed 103e b460 6f3e
00000040: d5b0 e33c 94a4 efbe c3f6 273e 3357 783e
00000050: 2648 ae3e 2580 6f3e 2803 503c b1e5 0dbd
00000060: 8de0 d03d 9c26 4cbe 8db6 e6be 8945 883e
00000070: 00b2 4fbd 86d7 37bd 8356 153f da9e 45be
00000080: fae4 d63d 7959 913e d3a7 04be 8738 4f3d
00000090: 7964 fa3e 6238 edbe e69c d03e c5ca 1f3e
000000a0: 987a 9d3d b1e7 143d 2ddf b43d b936 173f
000000b0: 3774 ef3e cca0 3ebe 66ee a5be d557 91be
000000c0: 9970 023f 7114 03be a77b 173e 5ca3 a63e
000000d0: 3bfb 99be 8d9f 983e e75c 0d3d 20fb 5c3e
000000e0: 6c33 8dbd 8703 213e 2a42 8f3d eaf9 d93e
000000f0: e1c7 3ebf 2b24 c1bd bbf6 8dbe ab56 44bd
00000100: 9a62 b0be 64bf 063f d8ae 153f 8779 85be
00000110: f7f3 cd3e 0253 013f 3122 76bc 8bae dfbb
00000120: d3d4 79be 6b36 c0be 99d1 80bd f020 003e
00000130: 6c38 81bd 22f0 9bbd 6825 cf3e b824 bb3e
00000140: f595 f8bd 3562 81be 129b 943d 1e83 4b3e
00000150: b2da 83bc 092c 39be 04ea cabe 3fb9 4c3c
00000160: 6608 bc3e 49bf 6dbe 7f27 0f3e 1a90 f03d
00000170: c640 db3e ed2c a2be f6d5 24bf bf03 b93d
00000180: d2c3 db3e 11bd ed3d 63a9 333e 16e9 683d
00000190: 4a36 cc3e 235d 86bd 61a9 353f 51ba 19bd
000001a0: be02 883e 82f4 85be 1e31 05bf 28c8 2dbe
000001b0: 9c94 84be e0ff 20bf 4681 06be dea3 1b3f
000001c0: 864b 6bbd cd4a b73e 4071 da3d cb09 063f
000001d0: 532e 1c3e 4bc5 24bc 3f17 0ebe 88b6 8b3e
000001e0: 0b25 61be 21d8 0abc 9f0f 85be 1156 9f3e
000001f0: 6ce9 38be ec84 fcbe 70f6 e9be 014f 983e
00000200: 5aa2 51bf 4322 963d ce00 3ebd e6d9 6cbe
00000210: 092a 9b3d cf23 a5be 0c64 093e af7b 3cbe
00000220: efca 2f3e 7183 423f 6358 023e 12ac 283c
00000230: ff2b 92bd 5d81 823e 817d afbd ee9a 67be
00000240: 3199 883e ddab 08bf 6513 f1be be9a 7bbe
00000250: fc27 8b3c 252e acbe fa1f 14bf 6c08 e83d
00000260: 5cfe da3e 4937 1b3e 500d 16be 89f4 823e
00000270: c0d1 97be cd4a f6be 248c 443e 82ec 853e
00000280: f9d5 dcbe 6c4f b6be 4ad9 223f e4f6 e33b
00000290: 0fca 853e 497b 13bf 809a 76be dd3b 16bd
000002a0: 633d 05be 51a5 c53e 8425 91be adef 9dbe
000002b0: d49d b9be 3c83 04be 45ea 013f 34ee 4cbc
000002c0: 6c45 803e aff6 473c dbc0 99be f5f8 803d
000002d0: 7457 7c3d 4c4e 3f3e e542 1ebf 252c 89bd
000002e0: 7dd4 ad3d 944a 303c 75f2 0abe 8c21 583e
000002f0: 407d 25be cd43 91bf 4f8a 81bd d9fe 69be
00000300: 4406 4cbe 5720 85be 599a 72bf 1a16 48be
00000310: 1062 4cbe 1124 bfbc 6b5a 79be 1241 a43d
00000320: c05f 0dbd 92e4 56be cc87 a0be e139 853e
00000330: 003f 2b3f 678a 123f 729f 7d3e f7c1 d9bc
00000340: e2d8 2e3f 48f0 083f affc dbbd 424d a4be
00000350: 16cf 6bbc 5706 b63d 0da8 d3be 1c46 f5be
00000360: 5104 193f fdbe 853d d8fb 443f 0491 2dbe
00000370: 2d6d 8e3e c971 d23c 4c65 fd3e cfa0 b5bd
00000380: 8a11 863f f6cd 97be 464f ee3b f3a4 04bf
00000390: 2742 3e3d 3dc6 b0be 8a64 603e baf9 6ebd
000003a0: b03b f43e c156 953e ad01 c7be 56a5 6dbe
000003b0: db7b 843e 8533 6cbd 6818 8d3f e6e7 e0be
000003c0: 0bf6 d2be 71a2 863d 1d7e 7f3e 29b2 083f
000003d0: ad2a 76be 219f cabe fc17 c7bd 2abd bc3e
000003e0: 95a5 f2bd e338 673e ea37 6d3d 6ea3 01bc
000003f0: 19fd a23e 0f55 a73e 8d64 42bd 3650 7f3e
-0.41700566 0.04348349 0.45550278 -0.10874213 0.4063087 -0.02902502 0.11300788 0.08470802
-0.04710499 -0.15405665 -0.3492899 0.042109545 -0.041639224 -0.16152385 0.14153114 0.23376733
0.027794281 -0.4680525 0.16402726 0.24252014 0.3403942 0.23388727 0.012696065 -0.03464288
0.1019908 -0.19936603 -0.4506115 0.2661555 -0.050706863 -0.044883274 0.5833513 -0.19298878
0.104928926 0.28388575 -0.12954645 0.050591018 0.4890478 -0.4633208 0.40744704 0.15604694
0.076893985 0.03635377 0.0883163 0.59067875 0.46768352 -0.18616027 -0.32408446 -0.28387323
0.5095306 -0.12800767 0.14793263 0.32546508 -0.30074486 0.29809228 0.034512427 0.21580172
-0.068945736 0.15724002 0.06995042 0.42573482 -0.7452374 -0.094307266 -0.27727303 -0.047934216
-0.34450227 0.5263579 0.58469915 -0.2606928 0.40225193 0.50517285 -0.0150228 -0.006826227
-0.24397592 -0.37541518 -0.062899776 0.12512565 -0.0630959 -0.07614161 0.40458226 0.36551452
-0.12137977 -0.2527024 0.0725614 0.19874236 -0.016095493 -0.18083204 -0.39631665 0.012495338
0.36725157 -0.23217501 0.1397991 0.11746235 0.42822856 -0.316749 -0.6438898 0.09033918
0.42922837 0.11608327 0.17545085 0.056862913 0.3988517 -0.06560733 0.70961577 -0.0375312
0.26564592 -0.26163107 -0.5202807 -0.16970885 -0.2589463 -0.62890434 -0.13135251 0.60796916
-0.05744507 0.35799256 0.10666132 0.5235869 0.15252046 -0.010056804 -0.13876055 0.27287698
-0.21986787 -0.008474381 -0.2598848 0.3112035 -0.18057793 -0.4932016 -0.4569583 0.29747775
-0.81888354 0.07330754 -0.046387486 -0.23129997 0.07576377 -0.32253882 0.13417071 -0.18406557
0.17167257 0.75981814 0.1272903 0.010294931 -0.07137298 0.2548932 -0.0856886 -0.22617695
0.26679376 -0.5338724 -0.4708511 -0.24570748 0.01698684 -0.33628955 -0.5786129 0.11329731
0.42772186 0.15157808 -0.14653516 0.2557719 -0.29652214 -0.48103943 0.19194084 0.26157004
-0.43131998 -0.3560747 0.63612807 0.006956922 0.2613072 -0.57609993 -0.24082375 -0.036678184
-0.13011698 0.3860269 -0.28348935 -0.3084692 -0.36253226 -0.12940687 0.5074809 -0.012507964
0.25052965 0.01220481 -0.3002995 0.06297485 0.06160684 0.18682212 -0.6182082 -0.06697873
0.084877945 0.010759968 -0.13569053 0.21106547 -0.1616106 -1.1348816 -0.063252084 -0.22851123
-0.19924265 -0.26001236 -0.94766766 -0.19539681 -0.19959283 -0.023332627 -0.24350898 0.08020224
-0.034515142 -0.2098563 -0.31353605 0.2602072 0.66893005 0.57242435 0.24767855 -0.026581747
0.68299687 0.5349164 -0.10741555 -0.32090193 -0.014392635 0.08887928 -0.4133915 -0.47905052
0.5977221 0.06530569 0.76946783 -0.1694985 0.2781767 0.025689023 0.49491346 -0.088685624
1.0474102 -0.29649323 0.0072726337 -0.5181419 0.046449807 -0.34526244 0.21913353 -0.058343627
0.47701788 0.2916775 -0.38868466 -0.23207602 0.25875744 -0.05766632 1.1023073 -0.43926924
-0.4120334 0.06573952 0.24950452 0.5339685 -0.24039717 -0.3957453 -0.097213715 0.3686307
-0.118479885 0.22580294 0.057914652 -0.0079125 0.31833723 0.32682082 -0.047459174 0.24932942

network.4.bias f4 [12]
00000000: 236a 09be a0a9 32be 450c 02be e329 a7ba
00000010: 7563 fdbd 5cce 0dbe 9f10 e53c a380 8fbe
00000020: 27c0 c7bd e9c1 a83b 3d02 6ebe 2788 37be
-0.13419394 -0.1744752 -0.12699993 -0.0012753572 -0.123724855 -0.13848251 0.027962027 -0.2802783
-0.09753447 0.005150069 -0.23243041 -0.17923032

network.0.weight f4 [256, 42]
00000000: 4620 76bf dd6b 4abf ef56 17bf 4abf 4f3f
00000010: 2707 9dbe 51c4 7d3e 3d67 323d d2ba 8c3e
00000020: a483 b23e c07a b7bd 974b f53e 1c93 fc3d
00000030: 6cae 563f e41f 8f3e 6ef5 083f 2c99 803e
00000040: 5ff2 d63d 5e8f a6be b050 bdbd 52d0 64be
00000050: 52a0 973e c195 9ebe 9197 1b3e 0e34 09be
00000060: 1a7f fbbd b34c 233d 1b31 45bd f476 43be
00000070: 3725 c93d d768 92bd afe7 c73e 0661 10bf
00000080: ad20 8cbe f15a 53be 0ef9 5b3e cc44 cabd
00000090: bd0f 49be e827 b63e a387 07bf 3d43 563d
000000a0: b79d 9b3d 0dbf d23e 6132 0340 9988 dc3e
000000b0: 194d 7cbb 9525 4cbf 5cb8 083d d697 973e
000000c0: 1d61 c7be 39e2 28bf 95c2 ef3e bf62 a13f
000000d0: 53ce e1be 1481 18bf 6747 8bbf 968d 0bbd
000000e0: abd0 2dbe 5570 6b3d f83e af3c 7055 8a3e
000000f0: f331 68be 5bae 453e d116 a13d d4ed 223e
00000100: 4a92 673d da88 293d afcb 243e 0ced a0be
00000110: 10cd edbd 2c1e 863e edfe 24be 0095 67bd
00000120: 165e bc3e 1d1d d8bd 48b6 0f3e 85c1 ff3d
00000130: 9ef8 17bf 7ed3 88be 91ed aabe 941f ec3d
00000140: 0340 08be 9186 683f 120d b73f 1bd1 5abe
00000150: 88df 3bc0 71a0 d8be a7ee 9d3e 7535 ccbe
00000160: 8dc6 afbe 71b4 283f 362f 15bf 4042 283e
00000170: fa1b a63e 8cb3 afbf fbe5 2b3e dd6b 4b3e
00000180: b1da 693f 192e ef3e 8efe 5d3f 9415 e83d
00000190: db33 3e3e 9754 723d 99a1 e7bd 577e a83e
000001a0: 5a24 4e3d 4aeb 3ebe aed4 36be f57d 7ebe
000001b0: e231 b8bc 311b 44be ff5d 433e 3c81 e33e
000001c0: fcf7 a0bb 2ff7 34bf 1ed6 4cbe d238 783e
000001d0: eca2 87be 37e7 383e 644b b73e cfed 7d3d
000001e0: e3f1 7e3d e5cc 92be 345f c3be a439 af3e
000001f0: 4f1a 20bf 5673 7fbe 9576 0d3f 267a 82bd
00000200: a3ff c7be 6726 86be b8ab 7abd 7f10 d7bd
00000210: d4d2 90be 5887 c23d 92a1 183f d6bf d5bf
00000220: 894e 8a3e 142a 95bd 27bb ea3d 215b 383d
00000230: d023 1d3e 02bb ed3e 0548 34be 3040 8a3d
00000240: cd86 913e 3e17 e03d f296 053e a926 9ebe
00000250: 0ab4 463d 6bc4 8ebe d5cc a2bd 78d8 11be
00000260: 21d0 663d d2fd 013f 9e68 6bbf f4b5 a13d
00000270: 0db0 5d3e eeff f5be bfe2 8e3d 2e53 b4bd
00000280: 3ada 8cbe d753 cf3d 1bb6 c23e 1960 58bd
00000290: 8640 c1bb e4cf c7be a3ea 9dbe f069 a83e
000002a0: d6ae 82bb 64d4 6d3d 96be 58be 08d9 0cbe
000002b0: 7758 ae3e c8c5 f0bd 6cf7 b2be 07ed d9be
000002c0: 9cf1 843e 7930 f73e 5ed3 083e 5fe4 3fbe
000002d0: d38b 72be 8fd0 843e f497 1dbf 6f93 3bbd
000002e0: badd c93e 4bcb 3d3e 2bd0 24bd bb98 9bbe
000002f0: 52f7 023e c28f b83e 40c0 873e 71be 14be
00000300: d4a4 223d d99a c0bd c9d7 313e 81de 523b
00000310: cc6b 89bf 2efa 16bf 415d a4be 04c0 173e
00000320: 60fc 39bf ea97 0cbd 1f06 093e bf36 013d
00000330: 088f a43e 541e 053f 41d7 aebe 5262 b5bd
00000340: 666d cebe 3631 c83e 8224 c6bf ceb6 113e
00000350: eeef 18bf fa21 8b3e 2e66 9d3f fcc6 aebe
00000360: 6b93 2f3e 5a0d a7bd 0764 013d 06db 733e
00000370: 6cf6 bfbd b898 50bb c291 3e3f fb8f e8be
00000380: 0052 333f bbd8 7dbe 93f1 e4bc c4ce a8be
00000390: dd3d 4e3c 0ec5 15bd 4334 9a3e c7e2 853e
000003a0: 1cbe a13b e059 813d 2c9a 0b3f 34ea 4c3d
000003b0: 5a9a df3d f6ab 063f 6730 86be 77ed cb3e
000003c0: 9bb0 05bf 734f 2f3f 1eb3 c03e 3c44 b13c
000003d0: 06c7 953e 35af 6dbc 7e00 cfbb 6b48 40be
000003e0: 9c31 9cbd 2770 2a3e 2845 09bf 317d 8e3e
000003f0: fc30 9c3f a277 41bf 5e15 863e 6e47 b8bd
-0.96142995 -0.79070836 -0.59117025 0.8115126 -0.3066952 0.2478192 0.043555487 0.27486283
0.3486606 -0.089589596 0.47909233 0.123327464 0.83859897 0.27954018 0.53499496 0.2511686
0.10495447 -0.32531255 -0.092439055 -0.22345093 0.29614502 -0.30973628 0.15194537 -0.13398764
-0.12280102 0.039868068 -0.048142534 -0.19088346 0.09821551 -0.07148903 0.39043948 -0.56398046
-0.2736868 -0.2064016 0.21481726 -0.09876403 -0.1963491 0.3557732 -0.5294134 0.052310217
0.07598441 0.41161385 2.04995 0.43072966 -0.0038498102 -0.79744846 0.033378944 0.2960803
-0.3894128 -0.6597019 0.46828142 1.260826 -0.44102725 -0.5957196 -1.0881165 -0.034070574
-0.16974132 0.057480175 0.02139233 0.2701831 -0.22675304 0.19304793 0.0786568 0.15911037
0.056535996 0.041390277 0.16093324 -0.31430852 -0.11611378 0.26194894 -0.16112871 -0.05653858
0.36790532 -0.10552428 0.14034379 0.12488083 -0.59363735 -0.26723856 -0.33384374 0.115294605
-0.13305669 0.9083033 1.4300864 -0.2136883 -2.9355183 -0.42309907 0.3084614 -0.39884534
-0.3433117 0.6590033 -0.58275163 0.16431522 0.3244322 -1.3726668 0.1678695 0.19865365
0.9134932 0.46714857 0.86716545 0.11332241 0.18574469 0.059162702 -0.11310119 0.3290889
0.050327636 -0.18644443 -0.17854568 -0.24852736 -0.022484723 -0.19150998 0.19078825 0.44434536
-0.0049123745 -0.7068967 -0.20003554 0.24240425 -0.26491487 0.18056951 0.35799706 0.06199437
0.0622424 -0.28671947 -0.38158572 0.34223664 -0.62540144 -0.24946341 0.55259067 -0.06370954
-0.39062223 -0.26201174 -0.06119892 -0.10501193 -0.2828585 0.09498471 0.59621537 -1.6699169
0.27013043 -0.072834164 0.11461478 0.045008782 0.15345693 0.46431738 -0.17605598 0.06750524
0.28423157 0.10941933 0.13045862 -0.3088887 0.048511542 -0.2788423 -0.07949225 -0.14242733
0.05635083 0.50777924 -0.9195651 0.07896033 0.2164919 -0.4804682 0.06976842 -0.08804928
-0.27510244 0.10123413 0.3802956 -0.05282602 -0.0058975844 -0.39025795 -0.30843076 0.32893324
-0.003988127 0.05806388 -0.21166453 -0.13754666 0.34051868 -0.11756474 -0.34954393 -0.4256365
0.25965583 0.4827917 0.1336188 -0.1873946 -0.23686151 0.25940368 -0.6155999 -0.0457949
0.39426976 0.18534581 -0.040237587 -0.30389962 0.12789658 0.36047179 0.26513863 -0.14525773
0.039707974 -0.09404535 0.17367472 0.003217608 -1.0736022 -0.58975494 -0.32102397 0.14819342
-0.7265072 -0.034324564 0.13381241 0.03154635 0.32140374 0.519994 -0.341486 -0.08856644
-0.4031784 0.39100045 -1.5479891 0.1422989 -0.59741104 0.2717436 1.2296808 -0.34136188
0.17146079 -0.081568435 0.031589534 0.2381402 -0.09373173 -0.0031829309 0.7444116 -0.45422348
0.70047 -0.24789707 -0.027947223 -0.3297025 0.012587992 -0.03656488 0.30117998 0.2614958
0.004935993 0.063159704 0.5453212 0.05002804 0.10918112 0.5260614 -0.26208803 0.3982961
-0.52222604 0.68480605 0.37636656 0.021638982 0.29253405 -0.014507105 -0.0063171973 -0.18777625
-0.0762665 0.16644345 -0.5362115 0.27829888 1.2202449 -0.7557317 0.26188177 -0.08997999

network.2.weight f4 [256, 256]
00000000: a9d3 5bbe e103 023d a05e aebd 4fbd 603e
00000010: 2da0 65bb f449 a3bd cc84 76be c535 7bbe
00000020: f016 21be 3470 f03d 59d6 67be 8dee 64bc
00000030: 5028 b33d 5ffb 59be 796c d2bc 9582 0c3e
00000040: 5af8 623e 916a 713c 5b6d 653e e1e4 fb3e
00000050: 405c d93d be93 d7bd 6a4d 863e 7155 02bc
00000060: 723e 25be 1733 df3d 8f09 b03e 7d3e 933d
00000070: 03da 503d 817c 043e 35a0 86ba 8f08 a83d
00000080: 034b 103e 7c7d 02bd 5959 623e 6834 983e
00000090: e62a 5e3d 21fe 9cbd 29d3 afbd 5ff3 1ebe
000000a0: 3426 aebd 7b9b b33e d021 823e 6d21 d13d
000000b0: 2019 a53d 6a40 4ebd 3488 56be bc4e 9cbd
000000c0: 568d 973c 62e1 a33d 6f92 593e fdcc dc3d
000000d0: b255 d6bd 1b3e 71be 103b e13d f835 5dbd
000000e0: b78e dbbd fbd8 5abc bfff ae3e e1d5 f9bc
000000f0: d6dc 063e 5473 0bbe 0a54 8bbd 91b1 2cbe
00000100: 56e9 acbd fdcf f93d cad7 31bd df95 7d3e
00000110: c561 ad3d 8d1f ce3d e85a 223e 8229 3c3e
00000120: 9398 05be 1a19 fbbe 5627 a83c 6b37 443e
00000130: 9c3f 133d 13af 2bbe ceb8 813d ff75 87bd
00000140: f5c3 943d b36f b6bd 9e57 19be 2059 85be
00000150: 6262 e4bc dc95 00be 766b 6dbe 167a b43d
00000160: dd35 61bd 1572 9d3e 4dee 8b3d 755d 523e
00000170: f57c 14be e8f7 c23c 4632 85be e4fe 93bb
00000180: 820b 07be e717 69be 5b59 68be 7a02 4f3e
00000190: 1fc9 013c 73c7 833d 4932 e03d 0bf6 1a3e
000001a0: ad00 343e 5bc7 073e 205b a33e b049 053d
000001b0: 69a0 bebd 8e25 0ebe bd16 98be e431 ea3d
000001c0: f025 ef3c 0c5a 14be 48f8 053c ab7b 93bc
000001d0: 14c3 43be 4894 8cbe 567b 723e 6180 783e
000001e0: 42f2 bd3e 9210 09bd 01a2 b63d f9c7 273c
000001f0: d2ca 123e 76a3 713d 3d35 953d 5034 d73d
00000200: e2d6 36be 6ca5 8abe 15fd c03b 69b7 4dbe
00000210: c291 e53d 2a9b af3e ac6a 66bc f0b8 143e
00000220: e35f 613d 1d76 8d3d 6c5f 913c a1fd ebbd
00000230: 9f1e 093e 2044 9d3e e0b3 d03d 3824 febd
00000240: e11d 38bd 23a2 703d 476e 1a3d d421 0dbe
00000250: a124 a1bd e524 343e eced 8fbc 18b3 2fbe
00000260: 6986 74bd fb8a 733e 9899 173f ad83 19bd
00000270: 1715 bebd 0c28 b3bd 4ab1 02be 8da5 ce3d
00000280: 4f11 1f3e 5d0e e9bd 1c40 4ebe 4946 25be
00000290: 49b0 35be 5765 6e3e 7f31 d2be fe00 12be
000002a0: 1286 94be 0bea 3fbc aff8 553d d237 2c3e
000002b0: d614 903c 4195 5dbe dbd3 13bc 9d79 fe3d
000002c0: 2caa ac3b adf4 f33e b0a9 873e e084 0e3d
000002d0: 77ee 5cbe 2cdc 69bd 5135 4bbd e31c 5fbe
000002e0: 886b 823e 634b b53e 1a51 a1be fd42 0ebd
000002f0: cf23 b0be 8b13 e23e ecde 723d b9c8 913d
00000300: 6bf9 223c 5acf a03e 7a87 bdbe 509e bdbe
00000310: c317 903e 45f0 4f3e 1dd6 293e a6a2 953b
00000320: 438e 823e db2b 0fbe 7669 c33d 8555 1cbd
00000330: 2929 02be 9b88 18bd 9f91 04be b1d7 7a3e
00000340: e00c ab3d d812 fbbd c300 0bbf a581 8ebd
00000350: cc61 98be 56ff 0e3e d8b7 c53d e692 d13e
00000360: 5c43 89bd fee5 8b3e 197f e33d 5606 83bb
00000370: fe7f 9ebe 32ce c83e cb08 253e eb99 82be
00000380: 0e1b 91bd 28fe 083e 238a 853e 2ea8 903c
00000390: 0be7 0fbb 4495 523e 3437 5dbd afcc a9bd
000003a0: b42c cdbc a3db 7abc 965b 1bbe e9b8 4f3c
000003b0: 3afc c7bd bad2 583d d2aa 48bb 9ad9 d9bd
000003c0: eefb 07be 4445 5a3d df50 983e cb04 74bd
000003d0: 1d24 09bf fcb0 b13d 197d 703e 6b47 21be
000003e0: 350c ac3e f1a6 9bbd 7755 eebe e8e7 8b3d
000003f0: 63cc ef3c 79d8 10bf 8021 01bd 6457 373e
-0.2146746 0.03174198 -0.08514142 0.21947215 -0.00350381 -0.0797309 -0.24074095 -0.2453223
-0.15731406 0.11740151 -0.22640361 -0.013972891 0.087479234 -0.21287297 -0.02568649 0.13721688
0.22165051 0.01473488 0.22404997 0.49198058 0.106132984 -0.105262265 0.26230937 -0.007954941
-0.16137102 0.108984165 0.34382293 0.07189653 0.050989162 0.1293812 -0.0010271134 0.082047574
0.14091115 -0.031857952 0.22104396 0.29727483 0.05424013 -0.07665659 -0.085851975 -0.15522526
-0.085033804 0.3507956 0.25416422 0.102114536 0.08061433 -0.0503544 -0.20950395 -0.07632205
0.018500011 0.08001973 0.21247266 0.10781286 -0.10465564 -0.23558848 0.109975934 -0.054006547
-0.1072058 -0.013357396 0.34179494 -0.030497493 0.1317018 -0.13618213 -0.068031386 -0.16864611
-0.08442943 0.12197874 -0.043418683 0.24764203 0.08465914 0.100646116 0.1585499 0.18375209
-0.13046484 -0.49042588 0.02052657 0.19161765 0.035949335 -0.16766004 0.06334077 -0.06614303
0.07263938 -0.08908024 -0.1497483 -0.2604456 -0.027878944 -0.12557167 -0.23185524 0.088123485
-0.05498301 0.307511 0.06832562 0.20543464 -0.14500792 0.023799852 -0.26014918 -0.0045164693
-0.13187984 -0.22763024 -0.22690336 0.20215788 0.007921486 0.06434526 0.10947091 0.1513292
0.17578383 0.13259642 0.3190546 0.032540977 -0.093079396 -0.13881513 -0.29704848 0.11435297
0.029192895 -0.14487475 0.008176871 -0.018003305 -0.19117385 -0.2745688 0.23679861 0.24267723
0.3709889 -0.03346307 0.089176185 0.010240548 0.14335182 0.05899378 0.07285545 0.10508025
-0.17855409 -0.27079332 0.0058895447 -0.20089497 0.11209442 0.34298068 -0.0140635185 0.14523673
0.055023085 0.06907294 0.017745696 -0.11522985 0.13390587 0.30716038 0.101905584 -0.12409252
-0.04495037 0.058748376 0.037702825 -0.13782436 -0.078683145 0.17592199 -0.017569505 -0.17158163
-0.059698496 0.23783486 0.5921874 -0.03747909 -0.09281366 -0.08747873 -0.12762943 0.1009017
0.15533946 -0.11379693 -0.20141643 -0.16140093 -0.17743029 0.23280846 -0.41053388 -0.14258191
-0.29008538 -0.011713515 0.052239116 0.16818169 0.01758806 -0.21638967 -0.009022678 0.1242554
0.0052693095 0.4764761 0.2649665 0.03479469 -0.21575342 -0.057094738 -0.049611393 -0.21788363
0.25472665 0.35409078 -0.31507188 -0.034731854 -0.3440232 0.44155535 0.059294626 0.07118363
0.009947161 0.31408197 -0.37017423 -0.37034845 0.2814313 0.203065 0.16585584 0.0045665083
0.25499162 -0.13981573 0.095415995 -0.038167495 -0.12711014 -0.037239652 -0.12946175 0.24496342
0.08352065 -0.122594535 -0.5429804 -0.069583215 -0.29762113 0.1396459 0.09654206 0.40932387
-0.06702301 0.27323908 0.11108226 -0.003998558 -0.30957025 0.39219815 0.16116636 -0.25508055
-0.070852384 0.13378203 0.26081952 0.01765832 -0.002195778 0.20564753 -0.054007724 -0.082909934
-0.02504573 -0.015311155 -0.15171656 0.012678363 -0.09764905 0.05293534 -0.0030619395 -0.10637207
-0.13279697 0.053288713 0.297492 -0.059574883 -0.5357073 0.08676335 0.23485221 -0.157499
0.33603063 -0.07600201 -0.4654958 0.06831342 0.029272264 -0.5658031 -0.03152609 0.1790443

network.4.weight f4 [12, 256]
00000000: a870 593c fbfe 913c 9a65 843a 6cf0 1f3d
00000010: 7dd6 b2bd dd43 c43a 88cc 26bc 5497 393d
00000020: 98ee 6ebd d127 afbd ba62 0137 3f4a 5fbb
00000030: 5c8e d73d 8355 73bd 9a3c d93d adf4 77bd
00000040: 54ee d03d 7b23 20bd b69f eebc 37ac 523c
00000050: dc4b 15bd 28d8 1abe f928 003d 0179 a33d
00000060: 3b0d 783d e47e 973d 3a36 a3bd 26c5 873d
00000070: c761 0b3e fadb 683d 232c 143d 1117 9b3d
00000080: 7fbb bbbd 1d58 1ebb 8171 23be 3d59 7cbd
00000090: c5f3 d9bc dc2b 38bd 92dd 0c3d 80be 08be
000000a0: ab5e 663d 5d7d 02bb 56c1 e2bd 66c7 babd
000000b0: 7d30 13be dc5d 113d c208 6ebd 2294 1dbe
000000c0: ab22 b23b 79a0 01bd ec8a 383d 6006 8b3d
000000d0: ce83 4f3e a4f6 143d 2039 d5bd 594b 2f3d
000000e0: bbe5 f1bd db83 bfbd a8f6 e03c ebdc 443d
000000f0: 28bd 22bc dfa4 653b e39a d4bb f79f 013e
00000100: c691 19bd cbf7 a1bd 0a2b 5cbd 64d2 6bbd
00000110: 6001 ec3d dec1 253c b2b4 dd3d b941 563e
00000120: ad71 4ebd c81e ac3c 4c9c 59bd 07a0 01be
00000130: f66a 6dbd 654e 813c 3dcd 01bd d754 b03d
00000140: 0ecd 183d 716b 083e efb5 cb39 acc9 6b3d
00000150: ff66 2c3d f237 ac3d b4d0 5bbd 7af4 9f3d
00000160: ba67 83bd 96ee 39bc ee9c 58be a06d 28bc
00000170: 5084 373e 1cf7 0a3e 16bf b5bd b5e7 f53d
00000180: be0a b1bc 49f1 043e 7b84 983b 52d3 35bd
00000190: d78f 9cbd fd0e 2e3d 4b23 3abd 3c5d d03d
000001a0: c512 ca3d 867e abbc 5d4e cebd 61cd cfbd
000001b0: ca83 333d a89e bb3d 6a53 253d a7a4 283d
000001c0: 8263 94bc 9adf 6abd 623d 843d 7a72 503d
000001d0: 26ed b33d 2215 99bd 3bdd d2bc 14f0 7d3e
000001e0: 151c b93c 0834 75bd 1b57 acbd 415c 943d
000001f0: 9eec 953c f903 e9bc d0d7 92bd a6da 2bbd
00000200: ea58 223d 2663 3c3d 193d d53d b26c 563d
00000210: b734 ab3d 8077 30bd 0c69 d5ba eff7 d8bb
00000220: de4b bfbd 68c4 873b 415a 513d 58ef 26bc
00000230: 986e 483c 123d 5c3d 8bfd 1f3d 1e1a 943d
00000240: 7bf7 93bd 992e 883c 3a56 a63d 2858 813c
00000250: 49ff e3ba dd27 16bd 2977 b83d e761 003d
00000260: 14eb 82bd 624c 6dbc db7b a1bd e4ec 533d
00000270: 6481 3dbd e91d 583c a9fb 2dbd 942d c63d
00000280: 40d6 693c 5d5c 1c3c 553a 503d d12d ecbc
00000290: 167a eb3c a6c1 6abd fa24 c4bd 0993 22bb
000002a0: 6426 21be 6a4b b6bd c3c5 ed3b d8fe 1ebd
000002b0: 15f6 a9bd 6873 7abd f977 b03d 9801 063e
000002c0: e84a 5dbd 287b 3bbd db9c e23d 0d62 a03d
000002d0: 0d60 66bd cd7c b3bd 72c4 00bd 3f82 663d
000002e0: 56d9 03bc cdf0 ce39 c863 0d3e e909 64bd
000002f0: 8b63 5ebd 5cf3 77bd 7232 503d 34d8 42bd
00000300: a3b3 c63d b8a8 36be a389 203e 0b02 7a3d
00000310: 8911 16be b4cc a2bd 32e7 803d 13ac 773d
00000320: 2667 de3d 4fb4 50bd 7aee ecbd 50f6 10bd
00000330: 8a0c c23d 9609 343e 33df a8bc 9511 aa3c
00000340: fe2f ff3c 4474 5fbd 5205 523d c756 0d3c
00000350: 5025 54bd 4ee0 c53c 461e c43c e7e9 f43d
00000360: 663f 1cbe 27b9 743b 1eab 87bd 237e 88bd
00000370: 4e9c 9abc 2f4a 27bd a20c a6bd ae1b bb3d
00000380: e228 86bd 6bbe 9e3d a12d f53c 12fe a7bd
00000390: db35 c9bb 98e9 1d3c 0fd7 3f3e 2541 383c
000003a0: 37a4 543d fcb5 a1bd a38c 13bd b7f8 05be
000003b0: cc5b 0abe 98ef e73d 652b 1e3e e609 2b3d
000003c0: 2bb5 eebd 86f4 95bc bc3a a4bc b7ca 303d
000003d0: d6c3 f1bd 222b abbd 93d1 913d fcd8 a13d
000003e0: 8d06 ffbc 877a 4b3d da7d 6abd 1d7c bbbd
000003f0: 9c60 bb3d 3937 ee3d 4d01 873d 568f 6dbd
0.013271488 0.01782178 0.001010108 0.039047644 -0.08732317 0.0014973838 -0.0101806 0.045310333
-0.05833301 -0.08552516 7.711986e-06 -0.0034071354 0.105252 -0.059407722 0.10607262 -0.060536075
0.102017075 -0.039096337 -0.02912889 0.012858442 -0.0364493 -0.1512152 0.031289075 0.07982064
0.060559493 0.07397249 -0.07969327 0.066294 0.13611518 0.05685041 0.036174905 0.07572759
-0.091666214 -0.0024161406 -0.15961267 -0.06160854 -0.026605496 -0.044963703 0.034390993 -0.1335392
0.056242626 -0.0019911148 -0.11072032 -0.091200635 -0.14373966 0.035489902 -0.05811382 -0.1538854
0.0054362617 -0.03164718 0.04505436 0.06788325 0.20265123 0.036368027 -0.10411286 0.042796466
-0.11811396 -0.09351321 0.027461365 0.048062246 -0.009932794 0.0035040898 -0.0064881905 0.12658678
-0.037492536 -0.07908591 -0.053751983 -0.05757369 0.115237 0.010117022 0.108254805 0.20923509
-0.05040138 0.021010771 -0.053127572 -0.12658702 -0.057963334 0.015784452 -0.03168987 0.08609932
0.03730493 0.13322236 0.00038854728 0.057565376 0.042090412 0.08409108 -0.05366583 0.07810302
-0.06416269 -0.011348387 -0.21153614 -0.010280043 0.17921567 0.13570827 -0.088743374 0.12007085
-0.021611568 0.12982668 0.004654465 -0.044390984 -0.07644623 0.042494763 -0.045443814 0.10174033
0.09866861 -0.020934355 -0.1007354 -0.10146595 0.043826856 0.09161121 0.040362753 0.04117265
-0.018113855 -0.05734215 0.0645702 0.050890423 0.08785467 -0.07474734 -0.025740257 0.24798614
0.022596398 -0.059864074 -0.084150515 0.072441585 0.018301304 -0.028444277 -0.07170069 -0.041956566
0.039635576 0.045992993 0.10412044 0.052349754 0.08359664 -0.043082714 -0.0016281917 -0.006621353
-0.093406424 0.0041432865 0.051111463 -0.0101889 0.012233399 0.05376918 0.039060157 0.07231544
-0.072249375 0.016623782 0.08121915 0.015789106 -0.0017394806 -0.03665911 0.09007103 0.031343367
-0.06392494 -0.014483543 -0.07884952 0.05173959 -0.046265975 0.013190725 -0.04247633 0.09676662
0.014272273 0.0095435055 0.05083688 -0.02883044 0.028744739 -0.057313584 -0.09577365 -0.0024806878
-0.15737301 -0.08901103 0.007256241 -0.038817257 -0.082988895 -0.061145216 0.08616633 0.13086545
-0.054026514 -0.045771748 0.11065074 0.07831202 -0.056243945 -0.08764038 -0.031437345 0.056276556
-0.008047422 0.00039470792 0.13807595 -0.055673514 -0.05429415 -0.06053482 0.05082936 -0.04756947
0.09702232 -0.17837799 0.15677504 0.061037105 -0.14655127 -0.079492 0.06294097 0.060466837
0.10859518 -0.050953206 -0.11568923 -0.035391152 0.09475048 0.17581782 -0.020614242 0.020760337
0.031150814 -0.05455424 0.051274605 0.008626646 -0.051793396 0.024154808 0.023940217 0.11958676
-0.1525856 0.0037341805 -0.06624435 -0.06664684 -0.01887336 -0.04084223 -0.08107878 0.09136139
-0.065507665 0.07751163 0.029928984 -0.08202757 -0.0061404533 0.009638213 0.18734382 0.011246
0.05191442 -0.07896039 -0.036022794 -0.13083158 -0.1351158 0.11324996 0.15446241 0.041757487
-0.11655649 -0.018305074 -0.020047538 0.043162074 -0.11804931 -0.08357836 0.07120051 0.079027146
-0.031131053 0.049677398 -0.057248928 -0.09154532 0.09149286 0.11631627 0.06592045 -0.057998024
